_________________________________________________________
Layer (type)                 Output Shape              Param #   
=================================================================
dense_1 (Dense)              (None, 24)                120       
_________________________________________________________________
dense_2 (Dense)              (None, 2)                 50        
=================================================================
Total params: 170
Trainable params: 170
Non-trainable params: 0
_________________________________________________________________
_________________________________________________________________
Layer (type)                 Output Shape              Param #   
=================================================================
dense_3 (Dense)              (None, 24)                168       
_________________________________________________________________
dense_4 (Dense)              (None, 24)                600       
_________________________________________________________________
dense_5 (Dense)              (None, 1)                 25        
=================================================================
Total params: 793
Trainable params: 793
Non-trainable params: 0
_________________________________________________________________
_________________________________________________________________
Layer (type)                 Output Shape              Param #   
=================================================================
dense_6 (Dense)              (None, 24)                168       
_________________________________________________________________
dense_7 (Dense)              (None, 24)                600       
_________________________________________________________________
dense_8 (Dense)              (None, 1)                 25        
=================================================================
Total params: 793
Trainable params: 793
Non-trainable params: 0
_________________________________________________________________
2018-04-27 03:35:45.857435: I C:\tf_jenkins\workspace\rel-win\M\windows\PY\35\tensorflow\core\platform\cpu_feature_guard.cc:137] Your CPU supports instructions that this TensorFlow binary was not compiled to use: AVX
…
